Saved params to './models/MULTIWOZ2.110ec05klp_13066/params.json'
Seq2Seq(
  (enc_embedder): Embedder(3931, 256, padding_idx=0)
  (encoder): RNNEncoder(
    (embedder): Embedder(3931, 256, padding_idx=0)
    (rnn): GRU(256, 256, batch_first=True)
    (transformer_encoder): TransformerEncoder(
      (layers): ModuleList(
        (0): TransformerEncoderLayer(
          (self_attn): MultiheadAttention(
            (out_proj): NonDynamicallyQuantizableLinear(in_features=256, out_features=256, bias=True)
          )
          (linear1): Linear(in_features=256, out_features=256, bias=True)
          (dropout): Dropout(p=0.2, inplace=False)
          (linear2): Linear(in_features=256, out_features=256, bias=True)
          (norm1): LayerNorm((256,), eps=1e-05, elementwise_affine=True)
          (norm2): LayerNorm((256,), eps=1e-05, elementwise_affine=True)
          (dropout1): Dropout(p=0.2, inplace=False)
          (dropout2): Dropout(p=0.2, inplace=False)
        )
      )
      (norm): LayerNorm((256,), eps=1e-05, elementwise_affine=True)
    )
  )
  (goaler): Sequential(
    (0): Linear(in_features=256, out_features=512, bias=True)
    (1): ReLU()
    (2): Dropout(p=0.2, inplace=False)
    (3): Linear(in_features=512, out_features=512, bias=True)
  )
  (Q_TD): Sequential(
    (0): Linear(in_features=256, out_features=512, bias=True)
    (1): ReLU()
    (2): Dropout(p=0.2, inplace=False)
    (3): Linear(in_features=512, out_features=1, bias=True)
  )
  (projector): Sequential(
    (0): Linear(in_features=256, out_features=128, bias=True)
    (1): ReLU()
  )
  (dec_embedder): Embedder(3931, 256, padding_idx=0)
  (kb_embedder): Embedder(3931, 256, padding_idx=0)
  (trans_layer): Linear(in_features=768, out_features=256, bias=True)
  (decoder): RNNDecoder(
    (embedder): Embedder(3931, 256, padding_idx=0)
    (attention): Attention(
      (rnn): GRU(512, 256, batch_first=True)
      (linear_query): ModuleList(
        (0): Linear(in_features=256, out_features=256, bias=True)
        (1): Linear(in_features=256, out_features=256, bias=True)
        (2): Linear(in_features=256, out_features=256, bias=True)
      )
      (linear_memory): ModuleList(
        (0): Linear(in_features=256, out_features=256, bias=False)
        (1): Linear(in_features=256, out_features=256, bias=False)
        (2): Linear(in_features=256, out_features=256, bias=False)
      )
      (v): ModuleList(
        (0): Linear(in_features=256, out_features=1, bias=False)
        (1): Linear(in_features=256, out_features=1, bias=False)
        (2): Linear(in_features=256, out_features=1, bias=False)
      )
      (tanh): Tanh()
      (softmax): Softmax(dim=-1)
      (sigmoid): Sigmoid()
      (linear_forget): ModuleList(
        (0): Linear(in_features=256, out_features=256, bias=False)
        (1): Linear(in_features=256, out_features=256, bias=False)
        (2): Linear(in_features=256, out_features=256, bias=False)
      )
      (linear_add): ModuleList(
        (0): Linear(in_features=256, out_features=256, bias=False)
        (1): Linear(in_features=256, out_features=256, bias=False)
        (2): Linear(in_features=256, out_features=256, bias=False)
      )
    )
    (kb_memory_v3): KnowledgeMemoryv3(
      (dropout_layer): Dropout(p=0.0, inplace=False)
      (linear_query): ModuleList(
        (0): Linear(in_features=256, out_features=256, bias=True)
        (1): Linear(in_features=256, out_features=256, bias=True)
        (2): Linear(in_features=256, out_features=256, bias=True)
      )
      (linear_memory): ModuleList(
        (0): Linear(in_features=256, out_features=256, bias=False)
        (1): Linear(in_features=256, out_features=256, bias=False)
        (2): Linear(in_features=256, out_features=256, bias=False)
      )
      (v): ModuleList(
        (0): Linear(in_features=256, out_features=1, bias=False)
        (1): Linear(in_features=256, out_features=1, bias=False)
        (2): Linear(in_features=256, out_features=1, bias=False)
      )
      (tanh): Tanh()
      (C_0): Embedding(3931, 256, padding_idx=0)
      (C_1): Embedding(3931, 256, padding_idx=0)
      (C_2): Embedding(3931, 256, padding_idx=0)
      (C_3): Embedding(3931, 256, padding_idx=0)
      (softmax): Softmax(dim=-1)
      (sigmoid): Sigmoid()
    )
    (rnn): GRU(512, 256, batch_first=True)
    (gate_layer): Sequential(
      (0): Linear(in_features=512, out_features=1, bias=True)
      (1): Sigmoid()
    )
    (copy_gate_layer): Sequential(
      (0): Linear(in_features=512, out_features=1, bias=True)
      (1): Sigmoid()
    )
    (output_layer): Sequential(
      (0): Dropout(p=0.2, inplace=False)
      (1): Linear(in_features=512, out_features=256, bias=True)
      (2): Linear(in_features=256, out_features=3931, bias=True)
      (3): Softmax(dim=-1)
    )
  )
  (sigmoid): Sigmoid()
  (nll_loss): NLLLoss()
  (bce_loss): MaskBCELoss()
)
Number of parameters: 10086878

Training starts ... seed:13066

=====================================================================================
================================== Model Training ===================================
=====================================================================================
…
